app/src/main/ml/crop_model.tflite (tflite, 50840 bytes, 8 tensors)

sequential/dense_1/BiasAdd/ReadVariableOp f4 [64]
0	0xbaa754dd	-0.001276638
1	0x38323938	4.2491796e-05
2	0x3d5a0a84	0.053232685
3	0x3c837045	0.016044745
4	0x3b933dd0	0.0044934526
5	0xbc3b9785	-0.011449699
6	0x3d28ccda	0.041210987
7	0xbb389c94	-0.00281695
8	0x3c40cdea	0.011767844
9	0x00000000	0.0
10	0x3cdff578	0.027338728
11	0x00000000	0.0
12	0x3cecb514	0.028894939
13	0xbc9f215b	-0.019425085
14	0xbc8719e2	-0.016491834
15	0x3c259e13	0.010108489
16	0x3d3118a8	0.043236405
17	0xbc7a39c5	-0.015272562
18	0xbccca407	-0.024980558
19	0x00000000	0.0
20	0x00000000	0.0
21	0xbc67d21b	-0.014149214
22	0xbc85d707	-0.016337885
23	0xbba90337	-0.005157854
24	0x3c917939	0.017757999
25	0xbcab41c6	-0.020905387
26	0xbbaf16fb	-0.0053433157
27	0xbc0aba2a	-0.0084672365
28	0xbc517d11	-0.012786166
29	0xbc82c3a9	-0.015962439
30	0xbc6c98d0	-0.01444073
31	0x00000000	0.0
32	0xbcb38c68	-0.021917537
33	0x00000000	0.0
34	0xbc1babfb	-0.009501453
35	0x3c3e4cc2	0.01161498
36	0xbcaa93fe	-0.020822521
37	0x3d3a3a07	0.045465495
38	0xbc5e177f	-0.013555407
39	0x3c6e920a	0.014561186
40	0xbd45e273	-0.048311662
41	0x3c5e6afe	0.013575314
42	0xbc9cd32f	-0.019143669
43	0x3c5697ba	0.013097698
44	0xbd273dd6	-0.040830456
45	0xbc3f8623	-0.0116896955
46	0x3d0492a4	0.03236641
47	0xbd154977	-0.036447015
48	0x3d9b3535	0.07578508
49	0x3d7c307f	0.061569687
50	0xbcdceb1c	-0.026967578
51	0xbc83813e	-0.016052838
52	0x3b6f4d34	0.0036514523
53	0xbc28aec1	-0.010295571
54	0xbca79821	-0.020458283
55	0xbc78c3a6	-0.015183365
56	0x3a9574c5	0.0011402598
57	0xbc3063d8	-0.010765992
58	0x3cd514c0	0.026010871
59	0xbc8ae494	-0.016954698
60	0xbd59ff2d	-0.05322187
61	0x00000000	0.0
62	0xbbc9418e	-0.006141848
63	0xbc12df73	-0.008964407

sequential/dense_2/BiasAdd/ReadVariableOp f4 [32]
0	0xbc49b490	-0.012311116
1	0xbd0bfb99	-0.03417549
2	0xbce308f1	-0.027714225
3	0x3d366ba6	0.044536255
4	0xbbf6e784	-0.007534923
5	0xbce8527b	-0.028359642
6	0xbc31fa1a	-0.0108628515
7	0x00000000	0.0
8	0x00000000	0.0
9	0x00000000	0.0
10	0x3c41a46e	0.011818988
11	0x3cdd1a85	0.026990185
12	0xbc85fa26	-0.016354632
13	0xbcca806f	-0.024719445
14	0xbcb8f447	-0.022577418
15	0x3d97d41c	0.074135035
16	0xbcf60675	-0.030032376
17	0xbc1368c9	-0.008997151
18	0x3c8b8ede	0.017035898
19	0x3d287d7b	0.041135293
20	0xbc3dec99	-0.011592054
21	0xbd024321	-0.0318023
22	0xbcb2d887	-0.021831764
23	0x3c949938	0.018139467
24	0x3c0541bc	0.008133348
25	0x3ba8e8d9	0.0051547107
26	0xbc8e14f8	-0.017343983
27	0x3c07b73a	0.008283431
28	0xbbcd7dce	-0.0062711006
29	0xbc6ca224	-0.014442954
30	0xbc9ec279	-0.019379841
31	0x00000000	0.0

sequential/dense_3/BiasAdd/ReadVariableOp f4 [22]
0	0xbd927412	-0.07151045
1	0x3cf6df68	0.030135825
2	0x3bd2218c	0.0064126905
3	0x3daa3c02	0.08312227
4	0xbc6e5011	-0.0145454565
5	0xbd25bc32	-0.04046268
6	0xbd36316c	-0.044480726
7	0xbbca1e0e	-0.0061681336
8	0x3d52e9da	0.05149255
9	0xbb1a67a7	-0.0023560317
10	0xbb94b9dd	-0.004538758
11	0x3de7fbc1	0.11327315
12	0x3ddd1b2c	0.10796198
13	0x3e06fe12	0.13182858
14	0xbd383132	-0.04496879
15	0x3cf3b2a8	0.029748276
16	0x3d1d484e	0.038399033
17	0xbd075dc3	-0.033048403
18	0xbcf7fdbb	-0.030272355
19	0x3cdc6059	0.02690141
20	0xbdca1032	-0.0986637
21	0x3d3e609c	0.046478853

sequential/dense/BiasAdd/ReadVariableOp f4 [128]
0	0x3d1e21ae	0.03860634
1	0x3c60d20e	0.013721956
2	0x3c296814	0.010339756
3	0x3beef517	0.0072924006
4	0x00000000	0.0
5	0xbd2bc5bd	-0.041936625
6	0xbbebbbe8	-0.007194031
7	0x3c5eb866	0.013593769
8	0x3d12949d	0.03578626
9	0xbc977865	-0.018490026
10	0x3ca8611a	0.020554114
11	0xbd4c3189	-0.049851928
12	0xbc464adf	-0.012102812
13	0xbbf339a8	-0.0074226446
14	0x3c6ff759	0.014646375
15	0xbc7ddfc3	-0.0154952435
16	0x3d11a402	0.0355568
17	0xbd06f63c	-0.03294967
18	0x3ca9172c	0.020640932
19	0xbcbf8d90	-0.023382932
20	0xbcaaa6a9	-0.020831423
21	0x3d133265	0.03593673
22	0xba909afe	-0.0011032519
23	0xbcbc9a0b	-0.023022672
24	0x00000000	0.0
25	0x00000000	0.0
26	0xbc296f8e	-0.010341538
27	0x3c833a02	0.016018871
28	0xbc7a4a17	-0.015276453
29	0xbc45442a	-0.012040177
30	0xbcd73c3b	-0.026273837
31	0x3d157e59	0.036497448
32	0x3b62e51a	0.0034621418
33	0xbd7cdfff	-0.061737057
34	0xbd02974c	-0.03188257
35	0x3d356f1d	0.04429542
36	0xbc97e832	-0.018543337
37	0x3cd07f98	0.025451466
38	0x00000000	0.0
39	0x3c8f5c60	0.017500103
40	0x3b741043	0.0037241138
41	0xbcb744c2	-0.022371653
42	0x3c8fb323	0.017541474
43	0x3d8655b8	0.06559318
44	0x3cc24a33	0.023717022
45	0xbd3a5c5b	-0.045498233
46	0x3ca8994a	0.020580906
47	0xbc8ac7be	-0.016940948
48	0x3c5a44c2	0.013322057
49	0xbd1ff72a	-0.039054073
50	0xbc8860d1	-0.016647728
51	0x00000000	0.0
52	0x3d0fb281	0.035082344
53	0xbcedc268	-0.029023364
54	0x3d42379d	0.04741632
55	0x3cca4f5f	0.02469605
56	0xbc13432c	-0.008988183
57	0xbc189e5d	-0.0093151005
58	0x3b9795d7	0.0046260166
59	0xbc8ca268	-0.017167285
60	0xbcb0864f	-0.021548418
61	0x3d0041a6	0.031312607
62	0xbca44e98	-0.020057008
63	0x3d55588e	0.052086405
64	0x3dcacbd4	0.099021584
65	0x00000000	0.0
66	0xbc0bc5b5	-0.008531024
67	0xbc8e0f85	-0.017341385
68	0x3c26ac97	0.010172985
69	0xbbca8e26	-0.006181496
70	0xbb3409e1	-0.0027471709
71	0x00000000	0.0
72	0x3de0f351	0.10983909
73	0xbcf217e8	-0.029552415
74	0xbc956075	-0.01823447
75	0x3bff6fc6	0.007795307
76	0x3c81e56d	0.015856469
77	0x3ccd36a9	0.025050478
78	0x3c33c05b	0.010971154
79	0xbca056a6	-0.019572567
80	0xbd5687b6	-0.052375518
81	0xbaa6da03	-0.0012729767
82	0x3cacfd07	0.021116747
83	0xbb9e9f56	-0.0048407717
84	0xbd22acc7	-0.039715555
85	0x3d02ad09	0.0319033
86	0xbc3c5d02	-0.011496784
87	0x3c52caf4	0.012865771
88	0x3d3ebed0	0.04656869
89	0x00000000	0.0
90	0xbd3157d2	-0.043296643
91	0x3d9fb730	0.07798612
92	0x3a6b0093	0.0008964624
93	0x3c351196	0.011051556
94	0xbaf93b22	-0.0019014815
95	0xbc00d97c	-0.007864352
96	0x3d980cd8	0.07424325
97	0xbcc506dc	-0.024051122
98	0xbc9d5d3d	-0.019209499
99	0x00000000	0.0
100	0xbcc0c49d	-0.023531253
101	0x3b9682ff	0.0045932527
102	0x3c6b9ac2	0.014380159
103	0x3c161167	0.0091594225
104	0xbcfa1218	-0.030526206
105	0xbcecb512	-0.028894935
106	0xbc61550f	-0.01375319
107	0xbc17cca3	-0.009265098
108	0xbd102c93	-0.03519876
109	0x3c3fbf9b	0.011703397
110	0x00000000	0.0
111	0xbc4c7b53	-0.012480575
112	0x3d1535c5	0.03642823
113	0x00000000	0.0
114	0x3c8eb659	0.017420935
115	0x3bfa4e12	0.0076387012
116	0xbc183a66	-0.009291267
117	0x00000000	0.0
118	0x00000000	0.0
119	0x00000000	0.0
120	0xbb02a548	-0.001993494
121	0x3c5968c4	0.013269607
122	0xbcb087db	-0.021549156
123	0x3ca98fd0	0.020698458
124	0x3b0d8468	0.0021593813
125	0x3c2c9f8a	0.010536084
126	0xbcbf91f3	-0.023385024
127	0x3d4a9887	0.049461868

sequential/dense/MatMul f4 [128, 7]
0	0x3e104b4f	0.14091228
1	0xbe043096	-0.12909159
2	0x3dcad1ee	0.09903322
3	0xbd0b1b35	-0.033961494
4	0xbcd56aba	-0.026051868
5	0x3db88b42	0.09010936
6	0x3b82b85c	0.0039892625
7	0x3cd2e88e	0.025745656
8	0xbd08a7d2	-0.03336317
9	0xbdfd39e4	-0.123645574
10	0x3d91e8ef	0.07124507
11	0x3e3bf65e	0.183557
12	0x3b1c55f1	0.0023854936
13	0x3d81efce	0.06344567
14	0xbd3adb55	-0.045619328
15	0xbe17eac4	-0.1483565
16	0x3db40698	0.0879032
17	0x3e13aadd	0.14420648
18	0x3c387bd4	0.011259992
19	0xbe112bd8	-0.14176881
20	0x3c06487a	0.008195991
21	0xbdb79182	-0.089633
22	0x3dbb7c66	0.091545865
23	0x3e577963	0.21042399
24	0x3da53f06	0.080686614
25	0xbe095a05	-0.13413246
26	0xbe2f66f4	-0.17129117
27	0xbe3593f0	-0.17732215
28	0x3e08f82d	0.13375922
29	0xbd345ae4	-0.044031993
30	0xbd5d4b78	-0.05402705
31	0xbe3fb790	-0.18722367
32	0xbe13b6ba	-0.14425173
33	0x3ddff576	0.1093549
34	0xbe1e1123	-0.15436225
35	0x3d57501c	0.052566633
36	0xbd1289ad	-0.03577583
37	0xbdfebe99	-0.12438697
38	0x3d052b61	0.032512072
39	0xbcf38cdb	-0.029730251
40	0x3ded6ead	0.11593375
41	0x3da462e3	0.08026674
42	0xbdade2e0	-0.084905386
43	0x3d406a76	0.04697653
44	0xbd011f8a	-0.03152422
45	0x3da3b1de	0.0799291
46	0x3e5403f4	0.20704633
47	0x3bb18926	0.0054179607
48	0xbcd6fbf3	-0.026243186
49	0x3e15b7e5	0.14620931
50	0x3d2498ef	0.04018491
51	0xbd8f092d	-0.06984172
52	0x3d16e84e	0.036842637
53	0x3cdb9090	0.026802331
54	0xbb91b165	-0.004446196
55	0xbd775fcd	-0.060394097
56	0x3e020e10	0.12700677
57	0xbe2bf1bc	-0.16791433
58	0x3e09220b	0.13391893
59	0x3e8035a3	0.25040922
60	0xbdcf0f51	-0.10110343
61	0x3d588fec	0.05287163
62	0xbe140627	-0.14455472
63	0x3d06b8c8	0.032891065
64	0xbcb2d389	-0.021829383
65	0x3d2446eb	0.040106695
66	0x3c232375	0.009957184
67	0xbe17d4ee	-0.1482732
68	0x3e05d464	0.13069302
69	0x3e3375d7	0.17525421
70	0x3dc38cc5	0.09548334
71	0x3e0d7286	0.13813218
72	0xbdb46aef	-0.088094585
73	0xbb99ebeb	-0.004697313
74	0x3e5119e7	0.20420037
75	0xbd827cd5	-0.06371466
76	0xbdb74e7a	-0.08950515
77	0x3e441b2d	0.19150992
78	0x3c5a5c9b	0.013327743
79	0xbe37175c	-0.17880005
80	0x3ddd3de8	0.10802823
81	0xbda45124	-0.08023289
82	0xbe1cb242	-0.15302375
83	0x3db3170a	0.08744629
84	0x3e2b5d99	0.16734923
85	0xbb7f8d00	-0.0038993955
86	0xbd9d566c	-0.07682499
87	0xbc79ac2e	-0.015238805
88	0x3e1c9907	0.1529275
89	0xbe5e89aa	-0.21732202
90	0xbe611172	-0.21979311
91	0x3be1d4b5	0.0068918117
92	0xbe2129f1	-0.15738656
93	0x3dc44926	0.095842645
94	0xbd41df17	-0.047331896
95	0xbde767c9	-0.11299092
96	0x3de8fe8e	0.113766775
97	0x3c7ce53f	0.015435516
98	0xbe001eb5	-0.12511714
99	0xbe364558	-0.1779989
100	0x3e48fee0	0.19628477
101	0xbe3085ec	-0.17238587
102	0xbd59f988	-0.053216487
103	0x3de1a1c7	0.11017185
104	0x3ddaae89	0.10677821
105	0x3d6b687f	0.057472702
106	0xbe64a59e	-0.22328803
107	0xbd42d94f	-0.047570523
108	0xbceaba1f	-0.028653203
109	0x3c996118	0.018723056
110	0xbcff4534	-0.031160928
111	0x3dbaa36c	0.091132015
112	0xbd384ab8	-0.044993132
113	0xbdc2b29d	-0.09506724
114	0x3e2dca2e	0.16971657
115	0x3dcdc267	0.10046845
116	0x3dce554a	0.10074861
117	0x3da3995e	0.07988237
118	0xbe06049f	-0.130877
119	0x3d27412f	0.04083365
120	0x3de31b48	0.11089188
121	0x3dcec7ed	0.100967266
122	0x3e169e37	0.14708792
123	0x3e3666ed	0.178127
124	0x3e2c6330	0.16834712
125	0x3cb13847	0.02163328
126	0x3e1593e0	0.14607191
127	0x3de3f554	0.11130777
128	0x3d4f9910	0.05068308
129	0xbe4c3303	-0.19941334
130	0x3dbb5a5a	0.091480926
131	0x3df8e37e	0.12152766
132	0xbe11563e	-0.14193055
133	0xbe24a1a7	-0.1607729
134	0xbd703dca	-0.058652677
135	0x3e2757e6	0.16342124
136	0x3df32c6d	0.11873708
137	0x3e1534b8	0.14570892
138	0xbe5b828c	-0.21436518
139	0x3ddb51e5	0.107089795
140	0x3d54856e	0.05188506
141	0xbe1111be	-0.14166924
142	0x3e04b5bf	0.12959956
143	0xbd8bbcc4	-0.068231136
144	0x3e451d3a	0.1924943
145	0xbe5d0be2	-0.21586564
146	0xbdf0fb51	-0.11766685
147	0x3e4e5dde	0.20152995
148	0xbdf68042	-0.12036182
149	0xbe34cb8c	-0.17655772
150	0x3cefe0cd	0.029281998
151	0x3df8c4c5	0.12146906
152	0xbc5974a1	-0.013272435
153	0xbd3888f5	-0.045052487
154	0xbda7c25f	-0.0819137
155	0xbd1c26d3	-0.038122963
156	0xbe4c26bf	-0.19936655
157	0x3d43e6f4	0.047827676
158	0x3d6fe3f6	0.05856701
159	0xbdb2a511	-0.0872289
160	0x3d916a0c	0.07100305
161	0x3e3e468f	0.18581603
162	0xbd81d933	-0.063402556
163	0x3df99fc4	0.12188676
164	0x3e041279	0.12897672
165	0xbe05132e	-0.12995598
166	0x3c064f2a	0.008197585
167	0xbd7b217c	-0.06131123
168	0x3af6d980	0.0018833131
169	0x3db1b7b6	0.08677618
170	0xbe055ddc	-0.13024086
171	0xba87ba80	-0.0010355264
172	0xbdb91c64	-0.09038618
173	0x3e037389	0.12837042
174	0xbe51a4b0	-0.2047298
175	0xbc466450	-0.012108877
176	0x3b6e0c00	0.003632307
177	0xbe071a12	-0.13193539
178	0xbd8dbfe6	-0.06921367
179	0xbe1f2702	-0.15542224
180	0x3d8bfd6e	0.06835447
181	0xbe063ffa	-0.13110343
182	0xbe568d71	-0.20952393
183	0xbdb1718b	-0.08664235
184	0xbda95184	-0.08267501
185	0x3bf0ecd8	0.0073524527
186	0xbcfeb384	-0.03109146
187	0x3db8c6d3	0.09022298
188	0x3df91430	0.121620536
189	0x3e3ffc1e	0.18748519
190	0xbe486a16	-0.19571719
191	0xbdb34de2	-0.08755089
192	0x3e186bd5	0.14884885
193	0xbcaa239f	-0.020768939
194	0x3d898871	0.06715477
195	0xbd9a85fb	-0.07545086
196	0x3e2c296f	0.1681268
197	0xbe16ec99	-0.14738692
198	0xbe6f62f5	-0.23377593
199	0xbdc4c143	-0.09607174
200	0x3e08378d	0.13302441
201	0xbe11af2f	-0.14226983
202	0x3db6497e	0.08900736
203	0x3e01ab1a	0.12662926
204	0xbe1167aa	-0.14199701
205	0xbe5d32c7	-0.21601401
206	0xbd74220b	-0.05960278
207	0x3d1d5f4a	0.038420953
208	0x3bd27248	0.006422315
209	0x3e25198d	0.16123028
210	0x3e27be83	0.16381268
211	0xbe78a70a	-0.2428247
212	0x3e000d00	0.12504959
213	0x3d8e14a4	0.06937531
214	0x3c9cf523	0.019159859
215	0xbd9d611c	-0.07684538
216	0x3d7c0405	0.06152727
217	0xbdedaeb4	-0.116055876
218	0x3e4737a7	0.19454823
219	0x3def0215	0.11670319
220	0xbd1ce743	-0.038306486
221	0xbe323b53	-0.17405443
222	0x3da45ea0	0.08025861
223	0x3da290b6	0.07937758
224	0x3e5e50db	0.21710531
225	0xbe0b810b	-0.13623445
226	0xbe2b5cd3	-0.16734628
227	0x3e28a8b9	0.16470613
228	0xbe4c570b	-0.1995508
229	0xbe1faa07	-0.15592204
230	0x3d791f30	0.06082076
231	0x3e475dea	0.19469419
232	0xbe421612	-0.18953732
233	0x3e3b9f64	0.18322521
234	0x3d8d5ccb	0.069024645
235	0x3e0f5283	0.1399632
236	0xbe6893c6	-0.22712621
237	0x3e1db9c0	0.15402889
238	0x3e52c8e7	0.2058445
239	0xbd24dd7d	-0.04025029
240	0xbe597225	-0.21234949
241	0x3de651f6	0.112461016
242	0x3ddc793b	0.107653104
243	0x3d9a09f2	0.07521428
244	0xbdca3bcb	-0.09874686
245	0x3e2b2e4a	0.16716877
246	0xbda7cda5	-0.081935205
247	0xbcb10bf7	-0.02161215
248	0xbd07dd91	-0.033170287
249	0x3db5acde	0.088708624
250	0x3e63e893	0.22256689
251	0xbe0451b0	-0.12921786
252	0xbe21c769	-0.15798725
253	0x3da68221	0.08130289
254	0xbe33ed54	-0.17571002
255	0xbe136035	-0.14392169

sequential/dense_1/MatMul f4 [64, 128]
0	0x3dca8dc0	0.09890318
1	0xbde4efe6	-0.111785695
2	0x3e2cbbb7	0.16868483
3	0x3e09c366	0.13453445
4	0x3e27711d	0.16351743
5	0x3e036ff6	0.12835678
6	0x3dfbf81f	0.12303185
7	0xbe1691d9	-0.14704074
8	0x3daacb7f	0.08339595
9	0xbe2c100f	-0.16803001
10	0x3dd4a3f5	0.10382835
11	0xbcfc1476	-0.030771475
12	0xbdc27d2e	-0.094965324
13	0xbd2ce1de	-0.04220759
14	0x3e36ff39	0.17870797
15	0x3e12f1fa	0.14350119
16	0x3ba8c7b8	0.0051507615
17	0xba105bf2	-0.0005506865
18	0x3de67d2d	0.11254344
19	0x3e3126fe	0.1730003
20	0x3e11e1c0	0.14246273
21	0xbe236a85	-0.15958603
22	0xbe1aa6f7	-0.15102755
23	0xbdbbfd43	-0.09179165
24	0x3e152009	0.14563002
25	0xbe1d763f	-0.15377139
26	0xbe421b66	-0.18955764
27	0xbe3dcf85	-0.18536194
28	0xbe40250e	-0.18764135
29	0xbe162ab2	-0.14664724
30	0x3cf00d5b	0.029303243
31	0xbcae9d2d	-0.021315182
32	0x3e1260de	0.14294764
33	0x3e238224	0.15967613
34	0xbe1a270f	-0.15053962
35	0x3db2bb80	0.08727169
36	0x3da0bb38	0.07848209
37	0xbe52425c	-0.20533127
38	0xbce16e40	-0.027518392
39	0xbe2352d3	-0.15949564
40	0xbe12f50a	-0.14351287
41	0xbd92e8d2	-0.07173313
42	0xbe165b45	-0.14683254
43	0x3def3f5d	0.116820075
44	0x3e31fb20	0.17380953
45	0xbd94eb51	-0.072714455
46	0xbe035bd1	-0.12827994
47	0x3dc69f29	0.09698326
48	0x3d9954f0	0.07486904
49	0x3db305aa	0.08741315
50	0x3d12aee2	0.035811312
51	0x3d839f9a	0.06426926
52	0xbe30f749	-0.17281832
53	0xbdc3cc7a	-0.09560485
54	0xbbfcbac1	-0.0077126925
55	0x3dfda867	0.12385636
56	0xbc7040b0	-0.01466386
57	0xbdd44f26	-0.10366659
58	0x3dea7714	0.114484936
59	0xbc819574	-0.015818335
60	0x3d6c57c5	0.05770089
61	0xbc1011ad	-0.008793277
62	0x3e0067eb	0.12539642
63	0x3d1bc7ce	0.038032345
64	0x3e417758	0.18893182
65	0xbd337228	-0.04381004
66	0xbcb6968f	-0.022288589
67	0xbdb57e86	-0.08862023
68	0xbd21a2cb	-0.039461892
69	0xbdd1635c	-0.102240294
70	0x3d4f4866	0.050606154
71	0x3d81ab98	0.06331557
72	0x3d9948c8	0.07484585
73	0x3dd95eb7	0.106137685
74	0xbd87bb56	-0.06627528
75	0xbe14d238	-0.14533317
76	0x3de54528	0.11194831
77	0xbca3b2ec	-0.019982778
78	0xbd918227	-0.07104903
79	0x3df77ff2	0.120849505
80	0x3d10471a	0.035224058
81	0x3d07e85a	0.033180572
82	0x3cac67d2	0.0210456
83	0xbde3e381	-0.11127377
84	0xbe3e48b5	-0.18582423
85	0xbdad4d5a	-0.08462019
86	0xbe1d7679	-0.15377225
87	0xbe667f89	-0.22509588
88	0x3c91ca28	0.01779659
89	0xbc5f7850	-0.013639525
90	0x3d9ac076	0.0755624
91	0xba90e9c5	-0.0011055997
92	0x3df54c29	0.11977417
93	0x3e533c21	0.20628406
94	0xbe186dff	-0.1488571
95	0xbda691b1	-0.08133257
96	0xbddabc4b	-0.10680445
97	0xbdc57e92	-0.09643282
98	0x3e212ab7	0.1573895
99	0x3c973c68	0.018461421
100	0x3d9cb7ea	0.07652266
101	0x3c81ab4b	0.01582875
102	0xbd794cf8	-0.06086442
103	0xbdedf148	-0.11618286
104	0xbe39c939	-0.18143167
105	0xbbb7ec0f	-0.005612857
106	0xbdeadc90	-0.1146785
107	0xbdbf29da	-0.093341544
108	0xbd779f43	-0.06045462
109	0xbdc438a0	-0.09581113
110	0xbdb1815b	-0.08667251
111	0x3e03140d	0.12800618
112	0x3d8dfe92	0.06933321
113	0xbccb20e8	-0.024795964
114	0x3dc8c8ab	0.098038994
115	0x3e2a6e7e	0.16643712
116	0x3e1bb1b5	0.15204509
117	0x3bfb7fe0	0.007675156
118	0x3ddb5bd6	0.10710876
119	0xbb617f80	-0.0034408271
120	0x3dab4cd3	0.083642624
121	0xbe05cc3f	-0.13066195
122	0x3e18cf37	0.14922796
123	0xbdd9ac8f	-0.10628616
124	0x3d87179c	0.065963
125	0x3e269625	0.16268213
126	0xbb26e266	-0.0025464534
127	0x3de947d4	0.11390653
128	0xbce92b65	-0.028463075
129	0xbe2d3406	-0.16914377
130	0xbcb790f1	-0.02240798
131	0x3dbd318a	0.092379645
132	0x3da812d6	0.08206718
133	0x3d6a40f6	0.057190858
134	0xbdb0bfc4	-0.086303264
135	0xbdf4f273	-0.11960306
136	0x3ddb618a	0.107119635
137	0xbc3e3796	-0.011609932
138	0x3db764e9	0.08954794
139	0x3d0edf29	0.03488079
140	0xbd854c9d	-0.065087534
141	0x3e0046d5	0.1252702
142	0xbdef69ba	-0.116900876
143	0x3d9c62cb	0.07636031
144	0x3d343f3b	0.044005614
145	0xbda28241	-0.07935
146	0xbc01cde7	-0.007922626
147	0x3d2f3779	0.042777512
148	0xbdcd5086	-0.10025124
149	0x3d920501	0.07129861
150	0x3d6ba08e	0.057526164
151	0xbdcd726d	-0.100315906
152	0xbdfcd42e	-0.123451576
153	0xbb51d340	-0.0032016784
154	0xbda156fb	-0.07877918
155	0x3e303070	0.17205977
156	0xbcba07b5	-0.022708753
157	0x3dd638d2	0.10460056
158	0xbd659d0c	-0.056057975
159	0x3d24fd59	0.040280674
160	0xbda953c6	-0.08267932
161	0x3e0f4dc9	0.13994516
162	0x3ce35390	0.027749807
163	0x3db6612a	0.08905251
164	0xbe094e13	-0.13408689
165	0x3c812701	0.015765669
166	0xbdc97ee9	-0.09838659
167	0x3b2be140	0.0026226789
168	0xbe31da37	-0.17368399
169	0xbc0734bb	-0.008252318
170	0x3dc4636a	0.09589274
171	0xbc9ebce3	-0.019377178
172	0xbdcaa530	-0.09894788
173	0x3e0a2e88	0.13494313
174	0x3dcafcb2	0.09911479
175	0xbdb2e1e8	-0.087344944
176	0x3e256d0e	0.16154882
177	0x3dbffcf6	0.0937442
178	0xbd29120c	-0.041276976
179	0xbdde64f2	-0.108590975
180	0xbbf3ca67	-0.0074398997
181	0xbe07d16a	-0.13263479
182	0x3df4c06d	0.11950765
183	0xbc4bd38c	-0.012440573
184	0x3daac2c3	0.08337929
185	0xbd96a79f	-0.0735619
186	0xbe6a0747	-0.22854339
187	0x3dff9c7e	0.124810204
188	0x3c5a4a75	0.013323416
189	0x3887c221	6.473461e-05
190	0x3d5b7ca2	0.053585656
191	0xbd49578e	-0.049155764
192	0x3e14f973	0.14548282
193	0xbd74d876	-0.059776746
194	0xbd25fc8b	-0.040524047
195	0xbdaa034d	-0.08301411
196	0xbd171e48	-0.036894113
197	0x3dab6302	0.083684936
198	0x3db7a0be	0.08966206
199	0xbdcf59aa	-0.10124524
200	0xbe3d4f14	-0.18487197
201	0xbdef001e	-0.11669944
202	0x3e150e30	0.14556193
203	0x3e3ed998	0.18637693
204	0x3cec5796	0.028850358
205	0xbd6f11df	-0.058366653
206	0xbda76b16	-0.08174722
207	0x3db6f234	0.08932915
208	0x3c1b6aab	0.009485881
209	0x3e1f40cd	0.15552063
210	0xbcd2fd68	-0.0257556
211	0xbcae45a1	-0.021273436
212	0x3e198a34	0.14994127
213	0xbca9f88c	-0.0207484
214	0x3c9fcb90	0.019506246
215	0xbe42cec4	-0.19024187
216	0x3e34fc38	0.17674339
217	0xbdd5662f	-0.104198806
218	0x3db97d7f	0.090571396
219	0xbdd70ba7	-0.105002694
220	0x3e004bdc	0.12528938
221	0xbe59d062	-0.21270898
222	0x3deaf206	0.114719436
223	0xbe0e0bb6	-0.13871655
224	0x3b9318bd	0.004489033
225	0x3e0d1ce3	0.1378055
226	0xbe200029	-0.15625061
227	0xbd38dc88	-0.04513219
228	0xbe0287af	-0.12747072
229	0xbd3cd1dd	-0.04609858
230	0xbe2278b3	-0.15866356
231	0x3cdd99e5	0.027050922
232	0xbd142dd2	-0.03617651
233	0xbd746445	-0.059665937
234	0xbd96e297	-0.07367437
235	0x3d93af0c	0.07211122
236	0x3e1365bb	0.14394276
237	0xbe281e9f	-0.16417931
238	0x3dc5669a	0.0963871
239	0xbd0163cc	-0.031589314
240	0x3c7fa2c3	0.01560277
241	0xbde932dc	-0.11386654
242	0x3e19c2e9	0.15015759
243	0xbe3382e1	-0.17530395
244	0xbcd34030	-0.025787443
245	0x3b99a640	0.004689008
246	0xbda1b0f8	-0.07895082
247	0x3e33dc29	0.17564453
248	0x3cd0a3b1	0.02546868
249	0xbd1a6663	-0.0376953
250	0x3de9ef25	0.11422566
251	0xbdba3d7e	-0.0909376
252	0xbe0acbec	-0.13554353
253	0xbdece429	-0.115669556
254	0x3d124a0e	0.035715155
255	0xbe75d5bb	-0.24007313

sequential/dense_2/MatMul f4 [32, 64]
0	0xbe06bd33	-0.13158111
1	0x3ddedbf1	0.10881794
2	0x3d8eaf75	0.069670595
3	0xbdb24f3d	-0.0870652
4	0xbe7e1435	-0.24812396
5	0x3e5e2986	0.21695527
6	0x3cccf660	0.025019825
7	0xbe1c61b1	-0.15271641
8	0xbb81163f	-0.0039394195
9	0xbdda53f8	-0.10660547
10	0x3e37f631	0.17965008
11	0xbd45f530	-0.048329532
12	0xbe114607	-0.1418687
13	0xbdbec838	-0.093155324
14	0x3e3fe969	0.18741383
15	0xbe3c71a1	-0.18402721
16	0xbd4ce970	-0.05002731
17	0x3e480cbf	0.19536112
18	0x3ca9a3aa	0.020707924
19	0x3de09be0	0.10967231
20	0x3d33fee0	0.04394424
21	0x3e13c860	0.14431906
22	0xbe1eca2b	-0.15506808
23	0xbca7e5e0	-0.020495355
24	0x3c144040	0.0090485215
25	0x3d2812f8	0.041033715
26	0xbd847372	-0.06467332
27	0xbe51e642	-0.20497993
28	0x3e4ccdac	0.20000333
29	0x3e515c78	0.2044543
30	0x3d7464c8	0.059666425
31	0xbe3292dc	-0.17438835
32	0xbe361acc	-0.1778366
33	0x3e57d858	0.21078622
34	0x3dc25b97	0.094901256
35	0xbe5320c5	-0.2061797
36	0x3e287ab5	0.16453059
37	0x3e66a5f7	0.22524248
38	0xbd8727db	-0.06599399
39	0x3e796d14	0.24358016
40	0xbe686de3	-0.22698168
41	0xbe57fdbd	-0.21092887
42	0xbe4f61bc	-0.20252126
43	0x3e294594	0.16530448
44	0x3e1e48f6	0.1545752
45	0xbe55da40	-0.20884037
46	0xbe051b64	-0.1299873
47	0x3e35af90	0.17742753
48	0x3e45d908	0.19321072
49	0x3e5f3ef4	0.21801358
50	0xbd83f2e5	-0.06442813
51	0xbe18aafd	-0.14908977
52	0x3e748e00	0.23882294
53	0x3e3c41c3	0.18384461
54	0xbd927f20	-0.071531534
55	0xbe60a3e4	-0.2193752
56	0x3d8960bf	0.06707906
57	0xbe3e4fa8	-0.18585074
58	0xbe69215b	-0.2276663
59	0xbe648eb2	-0.22320059
60	0x3dd54369	0.10413248
61	0xbe223034	-0.158387
62	0xbc917020	-0.01775366
63	0xbdf42450	-0.119209886
64	0x3db7cafa	0.089742616
65	0x3e8940a0	0.26807117
66	0xbe02b6d4	-0.12765056
67	0xbdd59591	-0.10428918
68	0x3ddb12c6	0.1069694
69	0x3e12a2bb	0.14319889
70	0xbe2efcb7	-0.1708859
71	0x3ac5610c	0.001505883
72	0xbe7d1b81	-0.24717523
73	0xbd912928	-0.07087928
74	0xbd7f4ce8	-0.062329203
75	0xbdc6b238	-0.09701961
76	0xbc60df7c	-0.013725158
77	0xbe720cfb	-0.23637764
78	0xbcd120a0	-0.025528252
79	0xbdef6cb9	-0.11690659
80	0x3c44c29b	0.012009288
81	0x3c9cc68e	0.019137647
82	0x3e57508c	0.2102682
83	0x3e575aec	0.21030778
84	0xbe64cf84	-0.22344786
85	0xbe143a03	-0.14475255
86	0x3e5e2996	0.21695551
87	0xbdbe5570	-0.0929364
88	0xbe48bd3d	-0.19603439
89	0xbe0adfd9	-0.13561954
90	0x3c3f6480	0.011681676
91	0x3e389d45	0.18028744
92	0xbcf247a5	-0.029575178
93	0x3dd788f3	0.10524168
94	0xbe434cdd	-0.1907229
95	0x3c141800	0.009038925
96	0x3daba76b	0.08381542
97	0x3e324b1c	0.17411464
98	0xbe8093fc	-0.25112903
99	0x3e5e4955	0.21707661
100	0xbe583510	-0.21113992
101	0x3e20f012	0.1571658
102	0x3e29d1e2	0.1658397
103	0x3d8ae30f	0.06781589
104	0x3d1fd75c	0.039023742
105	0xbe69e31b	-0.2284054
106	0xbce95666	-0.02848358
107	0xbe1b1596	-0.15144953
108	0x3e5132f1	0.20429589
109	0x3dbec25d	0.093144156
110	0x3ca104e0	0.019655645
111	0xbdd4b154	-0.10385385
112	0x3cba369c	0.022731118
113	0xbdc294af	-0.095010154
114	0xbe702032	-0.23449782
115	0xbe7f4c94	-0.24931556
116	0x3d979d45	0.07403044
117	0xbdf0ce30	-0.11758077
118	0x3d27487b	0.040840607
119	0x3e02cbce	0.12773058
120	0x3c605cfe	0.013694046
121	0x3e900a42	0.28132826
122	0x3e00b515	0.12569077
123	0x3e14535c	0.14484924
124	0x3e286e74	0.16448385
125	0x3c44b9c0	0.012007177
126	0x3d3c9350	0.046038926
127	0xbe4746c2	-0.19460586
128	0x3d347ff6	0.044067346
129	0xbd1ab63e	-0.037771456
130	0x3e5e86df	0.21731137
131	0xbd75dc5a	-0.060024597
132	0xbd169750	-0.036765397
133	0xbe36fac2	-0.17869094
134	0xbb05d286	-0.0020419671
135	0x3e2b0d79	0.16704358
136	0xbe37e117	-0.17956959
137	0xbd390970	-0.045175016
138	0xbc864bf2	-0.016393635
139	0x3da46fc0	0.08029127
140	0x3d465145	0.04841735
141	0xbc8eaf91	-0.017417701
142	0x3db9b9e9	0.09068663
143	0x3d26d488	0.04073003
144	0xbe468c22	-0.19389394
145	0x3e4492f9	0.1919669
146	0xbe12284c	-0.14273185
147	0x3e0364bc	0.12831396
148	0x3e0b378c	0.13595408
149	0x3e0996e7	0.13436471
150	0xbe80ba29	-0.2514203
151	0xbd6ea0c0	-0.058258772
152	0xbd9f448d	-0.07776747
153	0xbb8a054e	-0.004212058
154	0x3e2cf24a	0.16889301
155	0xbe125a3d	-0.14292236
156	0x3d38b93d	0.045098532
157	0xbe23cdec	-0.15996522
158	0xbe06e08c	-0.13171595
159	0x3e13c7b0	0.14431643
160	0xbd198043	-0.037475836
161	0xbdf1b9b0	-0.11802995
162	0xbe7b5f3c	-0.24548048
163	0xbe84ebd0	-0.2596116
164	0x3ddd91b3	0.108188055
165	0x3e1af503	0.15132527
166	0x3de00f96	0.10940473
167	0xbe0bba65	-0.13645323
168	0xbddecdd5	-0.10879103
169	0xbe863de4	-0.26219094
170	0x3e5b35f1	0.21407296
171	0xbe78670f	-0.24258064
172	0xbd31f153	-0.043443035
173	0x3d6a09c0	0.057138205
174	0xbe145fbb	-0.14489643
175	0x3d1d688a	0.038429774
176	0x3d37b09e	0.04484617
177	0xbe8ca926	-0.274728
178	0x3dea83b3	0.11450901
179	0x3dfa6fe5	0.122283734
180	0xbd6ed864	-0.058311835
181	0xbe85cac1	-0.2613125
182	0x3e343358	0.17597711
183	0x3d8d0bc0	0.06887007
184	0xbe6d41d6	-0.23169646
185	0x3d3ad51b	0.04561339
186	0xbcd67afa	-0.026181687
187	0x3e452d42	0.19255546
188	0xbdca243f	-0.09870195
189	0x3d1264a0	0.035740495
190	0x3d0f2a0d	0.034952212
191	0xbcf64000	-0.030059814
192	0xbe1a5eef	-0.15075277
193	0xbe2dad2d	-0.16960593
194	0x3e40cd5c	0.18828338
195	0x3cb2583a	0.021770585
196	0x3e1fa4e1	0.1559024
197	0xbe09c25e	-0.13453051
198	0xbe1e3ecd	-0.15453644
199	0x3d7bf880	0.061516285
200	0x3e279ad1	0.16367652
201	0xbe6e6b9c	-0.23283237
202	0xbe408ace	-0.1880295
203	0x3c755800	0.014974594
204	0x3d820b22	0.0634978
205	0x3e126ba8	0.1429888
206	0x3d330927	0.0437099
207	0x3dde9b4c	0.10869464
208	0xbe5502cb	-0.20801847
209	0xbe2768a0	-0.16348505
210	0x3e117402	0.1420441
211	0xbe650b58	-0.22367609
212	0xbde61d70	-0.112360835
213	0xbe261ddd	-0.1622233
214	0x3e6211c6	0.22077093
215	0x3e2f1308	0.17097104
216	0x3e0f74b2	0.1400936
217	0xbe2c0b72	-0.16801241
218	0x3e08e5c0	0.13368893
219	0x3dcb0bdd	0.09914372
220	0xbe38cb26	-0.18046245
221	0x3dd55cc3	0.104180835
222	0x3e0f15a1	0.13973095
223	0xbe77b064	-0.24188381
224	0xbdb1cbc6	-0.08681445
225	0x3e071088	0.131899
226	0xbd3fb100	-0.04679966
227	0x3d64aaa6	0.055826806
228	0xbd95fccb	-0.07323607
229	0x3e54e332	0.20789793
230	0x3cd68308	0.026185527
231	0xbd846f9d	-0.06466601
232	0x3d267545	0.04063918
233	0xbcd1bbc0	-0.025602221
234	0x3de4915b	0.11160537
235	0x3de62c2c	0.11238894
236	0xbc16293c	-0.0091651045
237	0x3e07fa38	0.13279045
238	0xbd85a148	-0.065249026
239	0xbe4a9081	-0.19781686
240	0xbc3d7db5	-0.011565615
241	0xbe1913ca	-0.14948955
242	0xbe219052	-0.1577771
243	0x3e7791f2	0.24176767
244	0xbd998563	-0.074961446
245	0x3e61e7c4	0.22061068
246	0x3dd9ee6b	0.10641178
247	0x3e2fdaa3	0.17173247
248	0xbe19bf09	-0.1501428
249	0x3da2094a	0.07911928
250	0xbe631ada	-0.22178212
251	0x3ddff3fb	0.109352075
252	0x3dcd81b9	0.10034508
253	0xbe7cd558	-0.24690759
254	0x3d72cab0	0.05927533
255	0xbe741f34	-0.23840028

sequential/dense_3/MatMul f4 [22, 32]
0	0xbe4534e2	-0.19258454
1	0xbd823e09	-0.063594885
2	0xbc975987	-0.018475307
3	0xbead93d5	-0.3390185
4	0x3e684d80	0.22685814
5	0xbe4a0543	-0.1972857
6	0xbd6549fc	-0.05597876
7	0x3e6641d6	0.22486052
8	0x3dccbeac	0.09997305
9	0xbe8634e0	-0.26212215
10	0x3e8cbc46	0.2748739
11	0x3e4827a4	0.19546372
12	0x3e46a008	0.19396985
13	0xbe8c7688	-0.27434182
14	0xbd7d935d	-0.061908115
15	0xbd587669	-0.0528473
16	0x3d144b47	0.036204603
17	0x3db3e09b	0.087830745
18	0xbecc6fae	-0.39928955
19	0x3dfb9362	0.122839704
20	0xbe54312d	-0.20721884
21	0xbe8c760f	-0.27433822
22	0xbdf682df	-0.120366804
23	0xbcd52d04	-0.026022442
24	0x38e32020	0.00010830187
25	0xbcfafdc5	-0.030638585
26	0x3e1af106	0.15131006
27	0x3e425500	0.18977737
28	0x3ddbc349	0.10730607
29	0x3e644629	0.22292389
30	0xbd8994de	-0.06717847
31	0x3e96f711	0.29485372
32	0xbcb67287	-0.022271408
33	0xbcd7af2e	-0.02632865
34	0xbe8ae059	-0.2712429
35	0x3e996ed1	0.2996736
36	0xbe2c4c96	-0.1682609
37	0xbd4d9c18	-0.05019769
38	0xbe454bff	-0.19267271
39	0xbdb603a0	-0.0888741
40	0xbe57a876	-0.21060356
41	0x3e463512	0.19356182
42	0xbe7728c3	-0.24136643
43	0x3e97623e	0.2956714
44	0xbe60f3f7	-0.21968065
45	0x3ebd4905	0.36969772
46	0x3e95dcbd	0.29269972
47	0x3d80d584	0.06290725
48	0xbe6a98a9	-0.22909798
49	0xbdd04b21	-0.1017058
50	0xbe816d94	-0.25278914
51	0xbea3f783	-0.32024774
52	0x3e07177d	0.13192554
53	0xbe0dd50b	-0.138508
54	0xbe76469d	-0.24050374
55	0xbe3b9d78	-0.18321788
56	0xbe49ef4f	-0.19720195
57	0xbe6b4028	-0.22973692
58	0xbe64919c	-0.2232117
59	0xbe89e960	-0.26935863
60	0xbe33d907	-0.17563258
61	0x3e32f534	0.1747635
62	0x3e70e9de	0.23526713
63	0xbe0745c0	-0.13210201
64	0x3e86e121	0.26343635
65	0xbe372213	-0.17884092
66	0xbcbafafa	-0.022824753
67	0x3e825290	0.25453615
68	0xbea66ae6	-0.32503432
69	0x3d5a3ad2	0.05327875
70	0x3ddf31ef	0.10898196
71	0xbe8f0208	-0.27931237
72	0x3e82583b	0.2545794
73	0x3e764a22	0.24051717
74	0xbe2abd50	-0.1667378
75	0xbe60ba58	-0.21946084
76	0x3e330066	0.1748062
77	0x3e5ca56f	0.21547483
78	0x3dfec4d3	0.12439885
79	0xbc0a7039	-0.0084496075
80	0x3d0f9754	0.035056427
81	0x3d5b7851	0.05358154
82	0xbe3997a6	-0.18124256
83	0x3c844848	0.016147748
84	0xbe555eed	-0.20836993
85	0xbe8b67a8	-0.2722752
86	0x3d7ad563	0.061238658
87	0xbeab3c5d	-0.3344449
88	0x3df71196	0.12063901
89	0xbde9a541	-0.11408473
90	0x3e93df1d	0.2888116
91	0x3eae9a96	0.34102315
92	0x3c8aca71	0.016942235
93	0xbe948186	-0.2900507
94	0x3e882051	0.26587155
95	0xbe26d110	-0.16290689
96	0xbe164af0	-0.14677024
97	0xbdc69fa6	-0.09698419
98	0x3e7bb612	0.24581173
99	0xbe93f9c1	-0.28901485
100	0x3e525eac	0.20543927
101	0xbe454a08	-0.19266522
102	0x3ea2dcfd	0.31809226
103	0xbe7f21ab	-0.24915187
104	0x3c0c0100	0.00854516
105	0x3e4e0172	0.20117739
106	0xbc3274f6	-0.0108921435
107	0xbdc17164	-0.09445456
108	0xbdb17cce	-0.08666383
109	0xbe3bbd77	-0.18333994
110	0xbca67cfd	-0.020323271
111	0x3d89b7ca	0.06724508
112	0xbe473670	-0.1945436
113	0xbe90f37e	-0.2831077
114	0x3d96b5f3	0.07358923
115	0x3e3c267b	0.18374054
116	0xbe5f2246	-0.21790418
117	0xbd287bbc	-0.041133627
118	0xbe4c33ab	-0.19941585
119	0x3edf4213	0.43605098
120	0x3dbdf1f4	0.092746645
121	0xbe181640	-0.14852238
122	0x3e28d564	0.16487652
123	0xbe5e7512	-0.21724346
124	0xbd61e304	-0.05514814
125	0xbdece5cc	-0.11567268
126	0xbe8e29ef	-0.27766368
127	0xbe2480e6	-0.16064796
128	0x3e8a7335	0.2704102
129	0x3e8542ef	0.2602763
130	0xbe9080e7	-0.28223345
131	0xbe29867f	-0.16555212
132	0xbe8ccf18	-0.2750175
133	0x3dd89b89	0.10576541
134	0xbe3d555d	-0.18489595
135	0xbe277f76	-0.16357216
136	0x3e8cb075	0.27478376
137	0xbe25ce26	-0.1619192
138	0xbe8c1de3	-0.27366552
139	0xbe3d1be5	-0.18467672
140	0xbd86c042	-0.06579639
141	0xbe1bc06c	-0.15210122
142	0xbca981c8	-0.020691767
143	0xbe69b345	-0.22822292
144	0x3e9dbc77	0.3080785
145	0x3e90ce4c	0.28282392
146	0x3c815c61	0.01579112
147	0x3ec96810	0.39337206
148	0xbe7988eb	-0.24368636
149	0xbde0c2ea	-0.10974677
150	0x3e88b6ba	0.2670191
151	0xbe0d6913	-0.13809614
152	0x3df36cb0	0.11885965
153	0xbe5f708f	-0.21820281
154	0xbe0a12ed	-0.13483782
155	0xbd02847a	-0.03186462
156	0xbe95a215	-0.2922522
157	0x3dfc229d	0.123112895
158	0xbe4f7cc4	-0.20262438
159	0xbc94fb30	-0.018186182
160	0x3e15d35d	0.1463141
161	0x3eb327d0	0.34991312
162	0xbeade06c	-0.33960283
163	0xbec1ee13	-0.3787695
164	0x3e26f5d3	0.16304712
165	0x3e8749c0	0.26423454
166	0xbd92e6ab	-0.07172903
167	0xbe1c2060	-0.15246725
168	0x3e609352	0.21931198
169	0x3d08b728	0.033377796
170	0xbe92c1db	-0.28663525
171	0xbd844ef5	-0.06460372
172	0x3e87ba7a	0.26509458
173	0x3d457a02	0.04821206
174	0x3e154b5f	0.14579533
175	0xbd1cb0a9	-0.038254414
176	0xbd4f1046	-0.05055263
177	0xbe072f91	-0.13201739
178	0xbeb237a4	-0.34808075
179	0xbd943228	-0.07236129
180	0xbe1cd5d7	-0.15315948
181	0x3e31e254	0.17371494
182	0x3e1eecb3	0.15519981
183	0x3ea71f1d	0.32640925
184	0xbe4ee86e	-0.20205852
185	0x3b6af0b4	0.0035849037
186	0xbe53f76f	-0.20699857
187	0xbe932121	-0.28736213
188	0xbe99804c	-0.29980695
189	0x3e3f277f	0.1866741
190	0xbda2a47d	-0.0794153
191	0xbea70586	-0.32621402
192	0xbe8d6a4f	-0.2762017
193	0x3e32bf21	0.17455722
194	0x3e25ff07	0.16210566
195	0x3e193c27	0.14964353
196	0xbe98c605	-0.29838577
197	0xbd370e47	-0.04469135
198	0x3dac18bc	0.08403155
199	0xbde9f956	-0.1142451
200	0x3e7fda22	0.24985555
201	0xbdcfddb6	-0.1014971
202	0xbd048e7d	-0.03236245
203	0xbecf1b1b	-0.40450367
204	0xbe9d00ea	-0.3066476
205	0x3e5c7c02	0.2153168
206	0x3c9eddf7	0.01939295
207	0xbeb5a25b	-0.3547543
208	0xbce68018	-0.028137252
209	0x3d9ac357	0.07556789
210	0xbea4e08a	-0.3220256
211	0x3e2fe99d	0.1717896
212	0xbd026294	-0.031832293
213	0x3e791d7e	0.24327657
214	0xbe2347d6	-0.15945372
215	0xbe4c9b64	-0.19981152
216	0xbcdfb816	-0.027309459
217	0x3e5a6ffd	0.21331783
218	0x3e07890e	0.13235876
219	0xbdd96f73	-0.106169604
220	0x3e694d8f	0.22783493
221	0xbd76a5f9	-0.060216878
222	0x3e16587e	0.14682195
223	0x3e3ea0fa	0.18616095
224	0xbe3a2116	-0.18176684
225	0xbe832052	-0.25610596
226	0x3e6c0f77	0.23052774
227	0xbd1c8623	-0.03821386
228	0x3d9745fa	0.07386394
229	0xbe6a66e9	-0.2289082
230	0xbe99d238	-0.30043197
231	0xbe8aeffe	-0.27136225
232	0x3d31ca40	0.04340577
233	0xbea8bfab	-0.3295873
234	0xbe36c575	-0.17848761
235	0xbe67a1b6	-0.22620282
236	0xbd3bb9e5	-0.04583158
237	0x3e06411d	0.13110776
238	0xbe9a8dd7	-0.3018634
239	0x3e999422	0.2999583
240	0x3ea9c1e3	0.33155736
241	0x3e8ef37b	0.27920136
242	0xbe5c82de	-0.21534297
243	0xbd965134	-0.07339707
244	0xbd309e2a	-0.043119587
245	0xbe888b63	-0.26668844
246	0x3dcd59cf	0.10026895
247	0x3e287e6b	0.16454475
248	0x3d0951a1	0.033525113
249	0x3e8cdf77	0.2751424
250	0xbcc56cce	-0.024099734
251	0xbdce5299	-0.10074348
252	0xbe8df537	-0.27726147
253	0x3d706ce8	0.05869761
254	0x3e0a02da	0.1347765
255	0xbe2d1486	-0.1690236
